data.pth (torch, 4991 bytes, 6 tensors)

l1.weight f4 [8, 54]
-0.2278513 0.36219022 0.79052234 -0.04592379 0.4666964 -0.24931589 0.68592644 0.4892181
0.66995937 0.59101945 -0.2632561 0.6119732 0.56925446 0.70057243 0.31959212 0.5644523
-0.10365946 -0.25212437 -0.40156192 -0.36688 -0.057992015 -0.36735898 -0.36691526 0.14824645
0.71190107 -0.16131096 -0.4138108 0.35476157 -0.16069192 0.15911637 -0.16569977 0.6313466
-0.117942974 0.6916232 0.43958414 0.47962362 0.086067 0.67850333 0.65578324 0.5433906
-0.29234985 -0.62874913 0.7090367 0.21703628 0.7665527 0.44947058 -0.6547696 -0.082304515
-0.057703003 -0.5956887 0.4839458 -0.43523633 0.4968552 0.31434545 0.36681867 0.021939943
-0.09511441 0.32720894 0.2285428 -0.5110299 0.09991088 -0.03463601 -0.23012795 0.011578284
0.34578416 -0.23564067 0.0069602393 -0.24709427 0.10356611 0.07234583 0.2948824 -0.51944274
0.089357235 0.5867226 0.5975052 0.5369072 0.45542744 0.32358918 -0.064223535 0.38962376
-0.0331938 0.25534862 -0.078915104 0.053674728 -0.33855695 -0.13947402 0.11866002 -0.17372963
0.060098093 0.3019941 -0.016571276 -0.2298354 0.114526264 0.026365748 -0.3723942 -0.08023262
-0.23575081 -0.06571342 -0.22093625 0.06534276 0.9569765 0.4093027 0.29995635 -0.005716285
0.14222544 -0.121970356 0.11423404 0.19324885 0.26349238 0.5866512 -0.19779502 -0.041302297
-0.041524164 -0.37851393 -0.13965212 -0.15753613 -0.2430187 -0.17829923 -0.17633 0.33377284
0.12179561 0.19228333 0.30118316 0.21500942 -0.031660233 -0.37574998 -0.14064722 -0.10933511
0.5401362 -0.30953592 -0.13736041 0.24522503 0.12767732 -0.108158626 -0.19102016 0.6071903
-0.11754833 0.50936246 -0.22652632 0.1560658 -0.106939085 -0.32151225 0.55909926 0.38953453
0.08185488 -0.1727667 -0.043886956 -0.18457523 -0.25063244 -0.3133549 0.45434064 0.4661762
-0.26274285 0.4619107 0.9407418 0.3130174 -0.19598658 -0.06793157 0.40867776 -0.17424345
-0.05578243 0.10129406 -0.25684598 -0.28641912 0.38849965 0.29670337 0.53721535 -0.42563418
0.2794952 0.37355655 0.10255514 0.46794814 0.38871473 -0.19167925 0.24490787 -0.3644603
-0.30365658 -0.22550234 0.46149054 -0.41339105 -0.16428092 0.53543466 -0.078167744 0.4187926
0.60942566 0.3871246 0.23747872 0.3004353 -0.21333311 -0.1559608 -0.11325517 -0.40469283
-0.23894429 -0.39110637 -0.024368681 0.32205254 0.00795567 -0.25354245 -0.3264778 0.09989466
0.27333474 0.17143054 -0.25161642 -0.3389716 -0.19212875 -0.23681608 -0.0462518 -0.07556313
-0.71886206 -0.27148056 0.26833087 -0.52128345 -0.2902115 -0.30763587 0.35635588 0.23852654
0.56391567 0.3308163 -0.5067748 -0.28835395 -0.3984572 -0.41707948 -0.11180858 -0.32497442
-0.18242256 -0.28755623 -0.15204445 -0.060960606 0.07444484 -0.14291075 0.252581 0.06697731
-0.25958377 -0.4171779 0.4889684 -0.3902104 0.51939905 -0.4167675 -0.3694238 -0.29479623
-0.005093683 -0.28308177 0.6036676 0.22660066 0.35509866 0.14586416 -0.26164088 -0.09935319
0.3583297 -0.24519484 0.24813786 0.14026175 0.38680333 -0.13567474 -0.21390003 -0.08968511
00000000: da51 69be ff70 b93e ac5f 4a3f 961a 3cbd
00000010: d5f2 ee3e aa4c 7fbe e098 2f3f cb7a fa3e
00000020: 7582 2b3f 0d4d 173f 81c9 86be 47aa 1c3f
00000030: a9ba 113f b758 333f 94a1 a33e f27f 103f
00000040: 694b d4bd 7216 81be 8699 cdbe b2d7 bbbe
00000050: 0989 6dbd 7a16 bcbe 51dc bbbe ebcd 173e
00000060: 263f 363f b32e 25be 02df d3be 4fa3 b53e
00000070: 6c8c 24be 67ef 223e 33ad 29be ee9f 213f
00000080: 168c f1bd 380e 313f 2c11 e13e 3a91 f53e
00000090: e543 b03d 65b2 2d3f 69e1 273f a51b 0b3f
000000a0: e1ae 95be b4f5 20bf 6e83 353f c23e 5e3e
000000b0: cc3c 443f 0221 e63e fb9e 27bf 458f a8bd
000000c0: fc59 6cbd 0e7f 18bf bec7 f73e 4cd7 debe
000000d0: ce63 fe3e e3f1 a03e a8cf bb3e 65bb b33c
000000e0: 58cb c2bd ee87 a73e 2007 6a3e dbd2 02bf
000000f0: 139e cc3d 7dde 0dbd a9a6 6bbe d8b2 3d3c
00000100: 9f0a b13e ca4b 71be b812 e43b 4806 7dbe
00000110: 781a d43d 0d2a 943d d3fa 963e 33fa 04bf
00000120: ed00 b73d 7433 163f 1af6 183f c072 093f
00000130: c92d e93e 7bad a53e a187 83bd c47c c73e
00000140: 39f6 07bd 0ebd 823e 3e9e a1bd 08da 5b3d
00000150: 5657 adbe 47d2 0ebe 0604 f33d 2ee6 31be
00000160: 6b29 763d f89e 9a3e 7cc0 87bc f959 6bbe
00000170: bf8c ea3d fbfc d73c 74aa bebe 0051 a4bd
00000180: a968 71be c294 86bd 1d3d 62be 6dd2 853d
00000190: 69fc 743f 2090 d13e e193 993e ad4f bbbb
000001a0: 8ca3 113e 98cb f9bd 89f3 e93d 07e3 453e
000001b0: 79e8 863e c62e 163f c78a 4abe 992c 29bd
000001c0: 3e15 2abd 94cc c1be f700 0fbe 2751 21be
000001d0: e5d9 78be 1394 36be da8f 34be 46e4 aa3e
000001e0: fa6f f93d ece5 443e ae34 9a3e 6e2b 5c3e
000001f0: 29ae 01bd 4d62 c0be d305 10be 16eb dfbd
00000200: 5e46 0a3f 7e7b 9ebe 35a8 0cbe 451c 7b3e
00000210: d8bd 023e 4582 ddbd ca9a 43be d370 1b3f
00000220: 2ebd f0bd 9465 023f 84f6 67be b7cf 1f3e
00000230: e102 dbbd 419d a4be 2121 0f3f 1271 c73e
00000240: 88a3 a73d c1e9 30be cfc2 33bd 4a01 3dbe
00000250: e552 80be 0e70 a0be 569f e83e a6ae ee3e
00000260: 3b86 86be 8f7f ec3e 74d4 703f d143 a03e
00000270: b5b0 48be b51f 8bbd 363e d13e e06c 32be
00000280: 1e7c 64bd 4373 cf3d 5181 83be 87a5 92be
00000290: 6de9 c63e 81e9 973e f286 093f b9ec d9be
000002a0: ff19 8f3e ce42 bf3e 6e08 d23d e696 ef3e
000002b0: 9e05 c73e 9147 44be 21c9 7a3e 8a9a babe
000002c0: e078 9bbe 16ea 66be 7d48 ec3e fea7 d3be
000002d0: 4239 28be 3f12 093f 6916 a0bd fc6b d63e
000002e0: 5203 1c3f 3235 c63e 9f2d 733e a8d2 993e
000002f0: ff73 5abe 30b4 1fbe 54f2 e7bd e633 cfbe
00000300: d0ad 74be 183f c8be d4a0 c7bc 12e4 a43e
00000310: 8058 023c 51d0 81be 1928 a7be 9295 cc3d
00000320: 88f2 8b3e 7d8b 2f3e ded3 80be b08d adbe
00000330: 66bd 44be ea7f 72be 8772 3dbd d8c0 9abd
00000340: 5807 38bf 80ff 8abe aa62 893e d572 05bf
00000350: 9a96 94be 7382 9dbe 4774 b63e 4d40 743e
00000360: c75c 103f c160 a93e febb 01bf 21a3 93be
00000370: 9502 ccbe 718b d5be e6fb e4bd 0c63 a6be
00000380: fbcc 3abe 923a 93be 8ab1 1bbe d4b1 79bd
00000390: 8976 983d 3257 12be 4c52 813e 662b 893d
000003a0: 2ae8 84be 5798 d5be 115a fa3e a8c9 c7be
000003b0: 56f7 043f 8d62 d5be 1e25 bdbe 88ef 96be
000003c0: e9e8 a6bb 18f0 90be f689 1a3f 010a 683e
000003d0: 7ecf b53e 6a5d 153e cbf5 85be af79 cbbd
000003e0: fe76 b73e 5b14 7bbe da17 7e3e c7a0 0f3e
000003f0: 160b c63e 52ee 0abe 9c08 5bbe d4ac b7bd

l1.bias f4 [8]
0.3668805 0.5195254 0.3756977 0.60649425 0.4170241 0.6776863 0.66235673 0.78893274
00000000: c3d7 bb3e 9eff 043f 735b c03e 3543 1b3f
00000010: 2f84 d53e d97c 2d3f 3690 293f 7ff7 493f

l2.weight f4 [8, 8]
-0.41447482 0.18727185 0.5520092 -0.6434794 0.79942393 0.6251737 -0.7482143 0.084409475
-0.71478593 0.23538354 0.452831 0.45221865 -0.5822595 0.9741964 -0.3669242 0.55142975
-0.9701698 0.4540673 -0.81741375 0.9609181 -0.47186375 0.29192096 1.2463374 0.90832263
0.29758015 -0.5889994 0.4442014 -1.2150807 0.43694016 0.2624814 1.3623027 0.9447664
1.3416584 0.037858337 0.0013740946 1.2861041 -0.8500154 1.410114 0.12152115 1.4186261
-0.59498465 0.9550342 0.8678762 0.05169844 1.2608942 0.46042502 -0.4671609 1.162115
0.6527411 0.7971158 0.66407764 0.74048686 0.21267094 1.0426238 -0.8372685 0.049627703
-0.75925255 0.4874186 0.67116845 -0.5012526 1.4871532 -0.48566464 0.14868538 0.772684
00000000: 0b36 d4be 31c4 3f3e 7a50 0d3f 11bb 24bf
00000010: 0ca7 4c3f 620b 203f f98a 3fbf e0de ac3d
00000020: 36fc 36bf 6208 713e 77d9 e73e 3489 e73e
00000030: f50e 15bf ef64 793f 7ddd bbbe 802a 0d3f
00000040: 0c5d 78bf 827b e83e 0742 51bf bbfe 753f
00000050: 2098 f1be aa76 953e fc87 9f3f d587 683f
00000060: 6d5c 983e aac8 16bf 5e6e e33e c487 9bbf
00000070: 9fb6 df3e f663 863e ef5f ae3f 36dc 713f
00000080: 76bb ab3f 5811 1b3d f71a b43a 0f9f a43f
00000090: 9c9a 59bf 9e7e b43f 15e0 f83d 8a95 b53f
000000a0: ea50 18bf 1f7d 743f 222d 5e3f bec1 533d
000000b0: fb64 a13f d4bc eb3e b72f efbe 2fc0 943f
000000c0: 0a1a 273f c80f 4c3f fe00 2a3f 8c90 3d3f
000000d0: 69c6 593e b274 853f 3a57 56bf 6b46 4b3d
000000e0: 605e 42bf ee8e f93e b2d1 2b3f 1752 00bf
000000f0: 095b be3f 09a9 f8be fb40 183e 9ece 453f

l2.bias f4 [8]
-0.22070175 -0.29635274 0.6305817 0.51965326 0.4787251 -0.08193812 0.48372716 -0.25584376
00000000: a4ff 61be 8cbb 97be cd6d 213f ff07 053f
00000010: 751b f53e 2ccf a7bd 16ab f73e f4fd 82be

l3.weight f4 [7, 8]
-1.6366669 -0.76314396 -1.2344413 0.6365114 0.22427173 -0.19155084 -0.13248685 -1.161458
0.48030183 0.5505077 -1.1355108 -0.40194353 -0.1941724 0.25719085 -0.015341488 -0.18748832
-0.28765982 -0.72721773 0.69765997 0.8995071 -0.20031174 -1.2972102 -0.56018883 -1.3012177
-0.9027135 0.6665791 0.7491411 -1.3419654 -0.10985323 0.36112958 0.1590801 -0.9248345
-1.2063276 -0.76455665 0.07610392 0.23737438 -0.5732649 0.12286806 -0.8964303 0.63412577
-0.93960994 -1.3205867 -0.5038853 -1.4515289 0.54366636 -1.4837996 0.65855235 -0.73575616
0.42247346 -0.5580279 -0.8385305 -0.29430512 -1.3958646 0.5507997 0.28031558 0.62244076
00000000: 4d7e d1bf 675d 43bf 2c02 9ebf 69f2 223f
00000010: 7da7 653e e725 44be a2aa 07be a8aa 94bf
00000020: 1fea f53e 13ee 0c3f 6b58 91bf 8bcb cdbe
00000030: 21d5 46be 85ae 833e dd5a 7bbc f0fc 3fbe
00000040: 2648 93be f12a 3abf d899 323f 1946 663f
00000050: 851e 4dbe fc0a a6bf 8968 0fbf 4d8e a6bf
00000060: 3b18 67bf eea4 2a3f b6c7 3f3f 86c5 abbf
00000070: bbfa e0bd fae5 b83e e5e5 223e f4c1 6cbf
00000080: f168 9abf fcb9 43bf 5fdc 9b3d 4512 733e
00000090: 7dc1 12bf 40a2 fb3d 757c 65bf 1156 223f
000000a0: 478a 70bf fc08 a9bf a1fe 00bf b3cb b9bf
000000b0: b82d 0b3f 25ed bdbf e396 283f 845a 3cbf
000000c0: 714e d83e ebda 0ebf efa9 56bf 29af 96be
000000d0: b1ab b2bf 3601 0d3f 8685 8f3e 4758 1f3f

l3.bias f4 [7]
0.0045418995 -0.5801744 0.5650218 -0.27993333 -0.35126188 0.23972274 0.31733322
00000000: 37d4 943b 4f86 14bf 45a5 103f 6c53 8fbe
00000010: 99d8 b3be e179 753e 8079 a23e
