data.pth (torch, 5183 bytes, 6 tensors)

l1.weight f4 [8, 57]
0	0x3e9ae798	0.30254817
1	0x3dc68583	0.09693434
2	0xbcc766a9	-0.024340944
3	0xbec1ae5e	-0.37828344
4	0xbe86f336	-0.2635743
5	0xbe5148e3	-0.2043796
6	0xbd896902	-0.06709482
7	0x3d3cb8c7	0.046074655
8	0x3ef776ca	0.48332816
9	0xbbdcd1d6	-0.0067388816
10	0xbdf73daf	-0.12072312
11	0x3ed03eea	0.40673
12	0x3ea5c8c2	0.3237973
13	0x3d9535cd	0.07285652
14	0xbe4ecf33	-0.20196228
15	0xbe6cee89	-0.23137869
16	0x3eda45f8	0.42631507
17	0x3edccfbb	0.43127236
18	0x3ea08060	0.31347942
19	0xbe41ebea	-0.1893765
20	0x3f02cadc	0.5109079
21	0x3f19cfbc	0.600826
22	0x3f2b75e9	0.6697679
23	0x3a92bb4c	0.0011194735
24	0xbdef80e4	-0.11694506
25	0x3e896bc0	0.2684002
26	0xbe2268d9	-0.15860309
27	0x3e025058	0.12725961
28	0x3ecf7a77	0.4052312
29	0x3d8d99de	0.069141135
30	0xbe8918da	-0.26776773
31	0x3d255d4f	0.04037219
32	0xbe77dbd5	-0.24204953
33	0xbeaa10f9	-0.33216074
34	0x3eb41757	0.35174057
35	0xbe7d3c01	-0.24729921
36	0xbd8fbff7	-0.07019036
37	0x3f88a562	1.0675471
38	0xbf3379b5	-0.70107585
39	0xbde82bfa	-0.11336513
40	0x3efca944	0.4934789
41	0x3f744834	0.95422673
42	0x3f004e14	0.5011914
43	0x3e43eb55	0.19132741
44	0x3d525955	0.051354725
45	0x3ea557bc	0.322935
46	0x3e27ff43	0.16405968
47	0x3f023420	0.50860786
48	0xbc62bdd5	-0.013839205
49	0xbef97b47	-0.48726866
50	0xbdc7f447	-0.09763389
51	0x3f03fdd3	0.5155918
52	0x3eeba5ea	0.4602502
53	0xbda5fda5	-0.081050195
54	0xbe925100	-0.28577423
55	0xbe4ea08c	-0.20178431
56	0x3e8697ad	0.26287594
57	0xbe159e92	-0.14611271
58	0x3ec7351d	0.3890771
59	0x3f000ff6	0.50024354
60	0x3f7e26fa	0.99278224
61	0x3f839c15	1.0282007
62	0x3f14e51a	0.5816208
63	0x3f1b715c	0.6071985
64	0xbd74f6e0	-0.05980575
65	0xbeb33610	-0.35002184
66	0x3e4b3104	0.19842917
67	0x3e4460d3	0.1917756
68	0xbeb33482	-0.35000998
69	0x3e8cf11f	0.2752771
70	0x3e5bea6c	0.21476144
71	0x3e6a0883	0.2285481
72	0xbe6bd31a	-0.23029748
73	0xbeaabf1e	-0.33348936
74	0xbea5e8e2	-0.32404238
75	0xbea4bed8	-0.32176852
76	0x3f8b240e	1.0870378
77	0xbf42f5dc	-0.761564
78	0xbf48e2a8	-0.7847085
79	0xbf422ff8	-0.75854445
80	0x3e6b2795	0.22964318
81	0x3b932bd9	0.004491311
82	0xbe22edb7	-0.15910994
83	0x3e93069f	0.2871599
84	0x3eaa6954	0.33283484
85	0x3eb7e7e9	0.3591912
86	0x3e5d100b	0.21588151
87	0x3d81fd2e	0.06347118
88	0x3e0c4002	0.13696292
89	0x3f2bca15	0.6710523
90	0x3f8ddeb3	1.1083587
91	0x3ebdf48b	0.37100634
92	0x3f4af306	0.79277074
93	0x3f26e406	0.65191686
94	0x3f5cb3f7	0.86212105
95	0xbf0068c8	-0.50159883
96	0x3deefb39	0.11669011
97	0x3ef58999	0.4795654
98	0x3f4e6d29	0.80635315
99	0x3edbf4d6	0.42960232
100	0xbe9fec54	-0.31234992
101	0x3f28c9de	0.65933025
102	0xbe4a6a6c	-0.19767159
103	0x3e9c0518	0.30472636
104	0xbedf38fa	-0.43598157
105	0xbd6f9bef	-0.05849832
106	0xbeb7a1f5	-0.3586575
107	0x3e9d7262	0.3075133
108	0x3e85f842	0.26165968
109	0xbdee636a	-0.116400555
110	0x3db31197	0.08743589
111	0xbebd617c	-0.36988437
112	0xbeaa8b74	-0.3330952
113	0xbe654801	-0.22390749
114	0x3ea745f7	0.32670566
115	0x3ebe9261	0.37221053
116	0x3e47bd28	0.19505751
117	0xbe0e6936	-0.13907322
118	0xbe9b18ec	-0.3029245
119	0xbe16d424	-0.14729363
120	0xbdd07bac	-0.101798385
121	0x3b8c1a14	0.0042755697
122	0x3ec372b4	0.3817345
123	0x3eec1657	0.46110794
124	0xbd8129bf	-0.063067906
125	0x3eaa90d4	0.3331362
126	0x3e7ee431	0.24891736
127	0x3d581311	0.05275256
128	0xbc5bc574	-0.013413776
129	0xbec6f9d1	-0.3886247
130	0x3e9fd59d	0.31217661
131	0x3ef131d0	0.47108316
132	0x3e8f1f77	0.27953693
133	0xbe0e598c	-0.13901347
134	0x3f21a049	0.631352
135	0x3f26148b	0.64875096
136	0x3eb7b105	0.35877243
137	0x3e470968	0.19437182
138	0x3d265ba7	0.04061475
139	0x3e8489d5	0.25886407
140	0xbc1d9e58	-0.009620272
141	0x3ef3edf7	0.4764249
142	0x3e89d6a8	0.26921582
143	0x3e8bd48c	0.27310598
144	0xbb394119	-0.002826756
145	0x3e5296db	0.2056536
146	0xbe86485d	-0.26227084
147	0xbe3748b5	-0.1789883
148	0x3ed6812d	0.41895428
149	0xbe83aa4d	-0.25715867
150	0xbdcfd132	-0.10147323
151	0x3eca59d1	0.3952165
152	0xbf32e5b2	-0.6988174
153	0x3e80e7b9	0.2517679
154	0x3e6220dc	0.22082847
155	0x3e83fb11	0.25777486
156	0x3f08a1f7	0.5337214
157	0x3e7c2b7d	0.24625964
158	0x3d64f9c6	0.055902265
159	0x3e4a51f6	0.19757828
160	0x3e841323	0.2579585
161	0x3ee80deb	0.4532312
162	0xbc27755b	-0.010220851
163	0xbefbf163	-0.492076
164	0x3e552fac	0.20818967
165	0x3dd06d80	0.101771355
166	0x3ec8d872	0.39227635
167	0x3e264ab2	0.16239432
168	0xbe84efd2	-0.25964218
169	0xbe9dbb3f	-0.3080692
170	0x3e94b1e0	0.29041958
171	0x3e7809d1	0.24222495
172	0xbe0d51b4	-0.13800699
173	0xbee2469e	-0.44194502
174	0xbf5f9921	-0.8734303
175	0xbe83997d	-0.2570304
176	0xbdf96c2d	-0.12178836
177	0xbe352fe8	-0.17694056
178	0x3c5d481d	0.013505963
179	0x3eb81ced	0.3595957
180	0xbca9b0e4	-0.02071423
181	0xbe40c738	-0.18825996
182	0x3ec6ca3a	0.38826162
183	0xbd9a717d	-0.075411774
184	0x3e1a43da	0.15064946
185	0xbd781848	-0.06057003
186	0x3df5c016	0.11999528
187	0x3ea6817a	0.32520658
188	0x3efaed56	0.49009198
189	0x3eda4711	0.42632344
190	0xbeb3b609	-0.3509982
191	0x3f1355c6	0.57552755
192	0x3f13dc0d	0.57757646
193	0x3f099fb6	0.53759325
194	0xbe719c9f	-0.23594902
195	0x3be4407c	0.006965695
196	0x3e223c24	0.15843254
197	0xbd34515c	-0.044022903
198	0xbe952277	-0.29127857
199	0x3dce5a02	0.100757614
200	0xbe53ff9d	-0.20702977
201	0xbd444b8f	-0.04792362
202	0xbd8199e9	-0.06328184
203	0xbdaec847	-0.085342936
204	0xbf5f606a	-0.8725649
205	0xbcf1318c	-0.029442571
206	0xbe86be6e	-0.2631716
207	0xbe676bd0	-0.22599721
208	0xbed76c93	-0.42075023
209	0x3d51d802	0.05123139
210	0xbe4ce089	-0.20007528
211	0xbc8b1626	-0.016978335
212	0xbeca3d89	-0.39500073
213	0x3e43b664	0.19112545
214	0x3e93c880	0.28863907
215	0xbec3f4d2	-0.3827272
216	0x3eaac210	0.33351183
217	0xbe5cd9ba	-0.21567431
218	0x3f231007	0.6369633
219	0x3c760d21	0.015017779
220	0x3d06fe5f	0.03295743
221	0x3e76ab90	0.24088883
222	0xbd58cf26	-0.052931927
223	0x3ebadf5d	0.36498538
224	0xbe0a8343	-0.13526635
225	0x3dec9186	0.11551194
226	0x3e791444	0.24324137
227	0x3e6d3c75	0.23167594
228	0x3e1a9aec	0.1509816
229	0x3e19be36	0.15013966
230	0x3efb6ecb	0.49107966
231	0x3f531b44	0.8246348
232	0xbe8a6a98	-0.2703445
233	0xbdc8f0c0	-0.098115444
234	0xbda8a9e2	-0.082355276
235	0x3ec16ba9	0.3777745
236	0x3e91f58e	0.28507656
237	0x3e9b435b	0.30324826
238	0xbed2aa4b	-0.41145548
239	0x3e80d787	0.25164434
240	0x3db4aaab	0.08821615
241	0x3eb3dfb9	0.35131624
242	0xbea16e02	-0.31529242
243	0x3c857db6	0.016295295
244	0x3e64f90c	0.22360629
245	0x3ea3bf2b	0.31981787
246	0x3eb680e7	0.3564522
247	0xbed14e3e	-0.40880007
248	0x3ecee612	0.40409905
249	0x3e6552ad	0.2239482
250	0x3e53a0ce	0.20666811
251	0x3dd072bd	0.101781346
252	0x3eb2d88b	0.34930834
253	0x3d472f93	0.048629355
254	0xbe99a134	-0.300058
255	0x3e12af7f	0.14324759

l1.bias f4 [8]
0	0x3f334282	0.7002336
1	0x3f494c90	0.7863245
2	0x3f32ee58	0.69894934
3	0x3f5f62d4	0.87260175
4	0x3f8cbb1f	1.0994605
5	0x3f990962	1.1955988
6	0x3f6c6a7c	0.9234998
7	0x3e8bf8ab	0.27338156

l2.weight f4 [8, 8]
0	0x3f4a835e	0.791067
1	0x3fc436e0	1.5329247
2	0x3f4c3dab	0.797816
3	0xbfad8a10	-1.3557758
4	0x3f835338	1.0259771
5	0xbf53d2d9	-0.82743603
6	0x3f567aed	0.8378132
7	0xbf59d3cc	-0.850888
8	0xbc496a2a	-0.012293378
9	0x3f2ce687	0.67539257
10	0x3f527214	0.8220532
11	0x3dd8d77e	0.10587977
12	0xbeab0be2	-0.33407503
13	0xbe69fff5	-0.22851546
14	0xbef1f6d5	-0.4725863
15	0x3f28390f	0.65712065
16	0x3dc20a65	0.09474639
17	0x3f257225	0.64627296
18	0x3ee256fc	0.4420699
19	0x3fab9dfb	1.3407587
20	0x3f7739b4	0.96572423
21	0x3fb74dcb	1.4320616
22	0xbf3b0d5f	-0.7306728
23	0x3f597c21	0.8495503
24	0x3f722ca6	0.9459938
25	0x3f05ac0c	0.5221565
26	0xbe33ac70	-0.17546248
27	0x3e4d95f6	0.20076737
28	0xbe4706a0	-0.19436121
29	0xbf8ad9f0	-1.0847759
30	0x3f171cb8	0.59028196
31	0xbf21c9bb	-0.6319844
32	0x3f82853d	1.0196911
33	0xbe931647	-0.28727934
34	0x3f0fe91a	0.5621506
35	0x3faeb85e	1.3650014
36	0x3fa99893	1.3249687
37	0x3fbd9a8f	1.4812793
38	0x3bb3420f	0.0054705213
39	0xbf462a59	-0.7740837
40	0x3d816f59	0.06320066
41	0xbdc37e48	-0.095455706
42	0xbc4c41c4	-0.012466852
43	0xbcbefd50	-0.023314148
44	0xbe80431d	-0.25051203
45	0xbeaeb42a	-0.3412183
46	0x3e0516b2	0.12996939
47	0x3d8207fc	0.06349179
48	0xbec54600	-0.38529968
49	0xbe293554	-0.1652425
50	0xbe9a5df6	-0.30149812
51	0x3e0c6241	0.13709356
52	0xbe5d6d35	-0.2162369
53	0x3e20c726	0.15700969
54	0xbeaa0c3b	-0.33212456
55	0x3e4ca687	0.199854
56	0xbfa1c933	-1.2639526
57	0x3f2c177c	0.67223334
58	0xbfa2cd5d	-1.2718922
59	0xbecd55d0	-0.40104532
60	0x3f6aba90	0.9169092
61	0x3f5799d5	0.84219104
62	0x3fb47155	1.4097086
63	0xbea4425c	-0.32081878

l2.bias f4 [8]
0	0x3dd2078c	0.10255346
1	0x3e0542db	0.13013785
2	0x3e32063f	0.17385195
3	0xbf010325	-0.50395423
4	0x3ef470cf	0.47742316
5	0xbe4f5d9f	-0.20250557
6	0xbe5e6254	-0.21717197
7	0x3f30e877	0.69104713

l3.weight f4 [7, 8]
0	0x3ec254cc	0.3795532
1	0x3e72e816	0.23721346
2	0xbe60fa2e	-0.21970436
3	0xbfc97e42	-1.5741656
4	0x3e89db12	0.2692495
5	0x3d79dc68	0.06100121
6	0x3d579198	0.052629083
7	0xbfc1ea58	-1.5149641
8	0xbf4e8949	-0.8067823
9	0x3f65b967	0.89736027
10	0x3f3f5a42	0.747471
11	0xbee5c984	-0.44880307
12	0xbf5b552c	-0.85676837
13	0x3e71ebcd	0.23625107
14	0xbe855e0b	-0.26048312
15	0xbf53414f	-0.8252153
16	0x3eae3897	0.3402755
17	0xbf88de46	-1.0692832
18	0xbeeac2e9	-0.4585183
19	0xbfdc22c7	-1.7198113
20	0xbd6fc109	-0.058533702
21	0x3e743815	0.23849519
22	0xbe58c512	-0.21168926
23	0x3f03edb0	0.5153456
24	0xbf92664e	-1.1437471
25	0xbeea8616	-0.45805424
26	0x3da93fe5	0.0826414
27	0xbf0e49f9	-0.55581623
28	0x3f7e5016	0.9934095
29	0x3e24ad11	0.16081645
30	0x3d706064	0.058685675
31	0xbfa85d4f	-1.3153476
32	0x3ebfa7a3	0.37432584
33	0xbe4e0d3c	-0.20122236
34	0xbfcfa4f6	-1.6222217
35	0x3e8920e0	0.26782894
36	0xbf55be28	-0.8349328
37	0xbeb4059b	-0.35160527
38	0x3e5eee74	0.2177065
39	0x3ed26fa7	0.4110081
40	0x3f10c0b6	0.56544054
41	0xbeed9081	-0.4639931
42	0xbf40c693	-0.75303
43	0x3eceb21c	0.40370262
44	0xbe3eb484	-0.18623549
45	0x3c39d9a5	0.011343394
46	0xbebb2a45	-0.36555687
47	0xbf174f27	-0.5910515
48	0xbfd63c8f	-1.6737231
49	0xbf42b361	-0.7605496
50	0xbded5ffa	-0.11590572
51	0xbf484cf6	-0.78242433
52	0x3eb71232	0.3575607
53	0x3d8cd3cd	0.06876335
54	0x3dad90df	0.084748976
55	0x3f53e595	0.8277219

l3.bias f4 [7]
0	0x3e583d4e	0.21117136
1	0x3f3aa7eb	0.7291247
2	0xbec1c64d	-0.37846604
3	0x3e560a73	0.20902424
4	0xbed389cf	-0.41316077
5	0xbec42ae2	-0.38313967
6	0xbd98a892	-0.07454027
